{"modelTopology":{"class_name":"Model","config":{"name":"model2","layers":[{"name":"input1","class_name":"InputLayer","config":{"batch_input_shape":[null,160],"dtype":"float32","sparse":false,"name":"input1"},"inbound_nodes":[]},{"name":"input2","class_name":"InputLayer","config":{"batch_input_shape":[null,185],"dtype":"float32","sparse":false,"name":"input2"},"inbound_nodes":[]},{"name":"input3","class_name":"InputLayer","config":{"batch_input_shape":[null,185],"dtype":"float32","sparse":false,"name":"input3"},"inbound_nodes":[]},{"name":"input4","class_name":"InputLayer","config":{"batch_input_shape":[null,92],"dtype":"float32","sparse":false,"name":"input4"},"inbound_nodes":[]},{"name":"input5","class_name":"InputLayer","config":{"batch_input_shape":[null,102],"dtype":"float32","sparse":false,"name":"input5"},"inbound_nodes":[]},{"name":"dense_Dense10","class_name":"Dense","config":{"units":1000,"activation":"linear","use_bias":true,"kernel_initializer":{"class_name":"VarianceScaling","config":{"scale":1,"mode":"fan_avg","distribution":"normal","seed":null}},"bias_initializer":{"class_name":"Zeros","config":{}},"kernel_regularizer":null,"bias_regularizer":null,"activity_regularizer":null,"kernel_constraint":null,"bias_constraint":null,"name":"dense_Dense10","trainable":true},"inbound_nodes":[[["input1",0,0,{}]]]},{"name":"dense_Dense11","class_name":"Dense","config":{"units":1000,"activation":"linear","use_bias":true,"kernel_initializer":{"class_name":"VarianceScaling","config":{"scale":1,"mode":"fan_avg","distribution":"normal","seed":null}},"bias_initializer":{"class_name":"Zeros","config":{}},"kernel_regularizer":null,"bias_regularizer":null,"activity_regularizer":null,"kernel_constraint":null,"bias_constraint":null,"name":"dense_Dense11","trainable":true},"inbound_nodes":[[["input2",0,0,{}]]]},{"name":"dense_Dense12","class_name":"Dense","config":{"units":1000,"activation":"linear","use_bias":true,"kernel_initializer":{"class_name":"VarianceScaling","config":{"scale":1,"mode":"fan_avg","distribution":"normal","seed":null}},"bias_initializer":{"class_name":"Zeros","config":{}},"kernel_regularizer":null,"bias_regularizer":null,"activity_regularizer":null,"kernel_constraint":null,"bias_constraint":null,"name":"dense_Dense12","trainable":true},"inbound_nodes":[[["input3",0,0,{}]]]},{"name":"dense_Dense13","class_name":"Dense","config":{"units":1000,"activation":"linear","use_bias":true,"kernel_initializer":{"class_name":"VarianceScaling","config":{"scale":1,"mode":"fan_avg","distribution":"normal","seed":null}},"bias_initializer":{"class_name":"Zeros","config":{}},"kernel_regularizer":null,"bias_regularizer":null,"activity_regularizer":null,"kernel_constraint":null,"bias_constraint":null,"name":"dense_Dense13","trainable":true},"inbound_nodes":[[["input4",0,0,{}]]]},{"name":"dense_Dense14","class_name":"Dense","config":{"units":1000,"activation":"linear","use_bias":true,"kernel_initializer":{"class_name":"VarianceScaling","config":{"scale":1,"mode":"fan_avg","distribution":"normal","seed":null}},"bias_initializer":{"class_name":"Zeros","config":{}},"kernel_regularizer":null,"bias_regularizer":null,"activity_regularizer":null,"kernel_constraint":null,"bias_constraint":null,"name":"dense_Dense14","trainable":true},"inbound_nodes":[[["input5",0,0,{}]]]},{"name":"myConcatenate1","class_name":"Concatenate","config":{"axis":1,"name":"myConcatenate1","trainable":true},"inbound_nodes":[[["dense_Dense10",0,0,{}],["dense_Dense11",0,0,{}],["dense_Dense12",0,0,{}],["dense_Dense13",0,0,{}],["dense_Dense14",0,0,{}]]]},{"name":"myConcatenate1Dense4","class_name":"Dense","config":{"units":1,"activation":"linear","use_bias":true,"kernel_initializer":{"class_name":"VarianceScaling","config":{"scale":1,"mode":"fan_avg","distribution":"normal","seed":null}},"bias_initializer":{"class_name":"Zeros","config":{}},"kernel_regularizer":null,"bias_regularizer":null,"activity_regularizer":null,"kernel_constraint":null,"bias_constraint":null,"name":"myConcatenate1Dense4","trainable":true},"inbound_nodes":[[["myConcatenate1",0,0,{}]]]}],"input_layers":[["input1",0,0],["input2",0,0],["input3",0,0],["input4",0,0],["input5",0,0]],"output_layers":[["myConcatenate1Dense4",0,0]]},"keras_version":"tfjs-layers 0.8.2","backend":"tensor_flow.js"},"weightsManifest":[{"paths":["./model.weights.bin"],"weights":[{"name":"dense_Dense10/kernel","shape":[160,1000],"dtype":"float32"},{"name":"dense_Dense10/bias","shape":[1000],"dtype":"float32"},{"name":"dense_Dense11/kernel","shape":[185,1000],"dtype":"float32"},{"name":"dense_Dense11/bias","shape":[1000],"dtype":"float32"},{"name":"dense_Dense12/kernel","shape":[185,1000],"dtype":"float32"},{"name":"dense_Dense12/bias","shape":[1000],"dtype":"float32"},{"name":"dense_Dense13/kernel","shape":[92,1000],"dtype":"float32"},{"name":"dense_Dense13/bias","shape":[1000],"dtype":"float32"},{"name":"dense_Dense14/kernel","shape":[102,1000],"dtype":"float32"},{"name":"dense_Dense14/bias","shape":[1000],"dtype":"float32"},{"name":"myConcatenate1Dense4/kernel","shape":[5000,1],"dtype":"float32"},{"name":"myConcatenate1Dense4/bias","shape":[1],"dtype":"float32"}]}]}